…
u'))\n","model.add(layers.MaxPooling2D((2, 2)))\n","model.add(layers.Conv2D(64, (3, 3), activation='relu'))\n","model.add(layers.Flatten())\n","model.add(layers.Dense(64, activation='relu'))\n","model.add(layers.Dense(2, activation='softmax'))\n","model.summary()\n"],"execution_count":null,"outputs":[{"output_type":"stream","text":["Model: \"sequential\"\n","_________________________________________________________________\n","Layer (type)                 Output Shape              Param #   \n","=================================================================\n","conv2d (Conv2D)              (None, 198, 298, 32)      896       \n","_________________________________________________________________\n","max_pooling2d (MaxPooling2D) (None, 99, 149, 32)       0         \n","_________________________________________________________________\n","conv2d_1 (Conv2D)            (None, 97, 147, 64)       18496     \n","_________________________________________________________________\n","max_pooling2d_1 (MaxPooling2 (None, 48, 73, 64)        0         \n","_________________________________________________________________\n","conv2d_2 (Conv2D)            (None, 46, 71, 64)        36928     \n","_________________________________________________________________\n","flatten (Flatten)            (None, 209024)            0         \n","_________________________________________________________________\n","dense (Dense)                (None, 64)                13377600  \n","_________________________________________________________________\n","dense_1 (Dense)              (None, 2)                 130       \n","=================================================================\n","Total params: 13,434,050\n","Trainable params: 13,434,050\n","Non-trainable params: 0\n","_________________________________________________________________\n"],"name":"stdout"}]},{"cell_type":"code","metadata":{"colab":{"background_save":true,"base_uri":"https://localhost:8080/"},"id":"O2WTnhEDXZPB","executionInfo":{
…
