…
        layers.Conv2D(128, (3, 3), strides=(2, 2), padding=\"same\"),\n","        layers.LeakyReLU(alpha=0.2),\n","        layers.GlobalMaxPooling2D(),\n","        layers.Dense(1),\n","    ],\n","    name=\"discriminator\",\n",")\n","\n","discriminator.summary()"],"execution_count":null,"outputs":[{"output_type":"stream","text":["Model: \"discriminator\"\n","_________________________________________________________________\n","Layer (type)                 Output Shape              Param #   \n","=================================================================\n","conv2d (Conv2D)              (None, 14, 14, 64)        640       \n","_________________________________________________________________\n","leaky_re_lu (LeakyReLU)      (None, 14, 14, 64)        0         \n","_________________________________________________________________\n","conv2d_1 (Conv2D)            (None, 7, 7, 128)         73856     \n","_________________________________________________________________\n","leaky_re_lu_1 (LeakyReLU)    (None, 7, 7, 128)         0         \n","_________________________________________________________________\n","global_max_pooling2d (Global (None, 128)               0         \n","_________________________________________________________________\n","dense (Dense)                (None, 1)                 129       \n","=================================================================\n","Total params: 74,625\n","Trainable params: 74,625\n","Non-trainable params: 0\n","_________________________________________________________________\n"],"name":"stdout"}]},{"cell_type":"markdown","metadata":{"id":"at4C5JFbWbcq"},"source":["## Create the generator\n","\n","It mirrors the discriminator, replacing `Conv2
…
 layers.Conv2DTranspose(128, (4, 4), strides=(2, 2), padding=\"same\"),\n","        layers.LeakyReLU(alpha=0.2),\n","        layers.Conv2D(1, (7, 7), padding=\"same\", activation=\"sigmoid\"),\n","    ],\n","    name=\"generator\",\n",")\n","\n","generator.summary()"],"execution_count":null,"outputs":[{"output_type":"stream","text":["Model: \"generator\"\n","_________________________________________________________________\n","Layer (type)                 Output Shape              Param #   \n","=================================================================\n","dense_1 (Dense)              (None, 6272)              809088    \n","_________________________________________________________________\n","leaky_re_lu_2 (LeakyReLU)    (None, 6272)              0         \n","_________________________________________________________________\n","reshape (Reshape)            (None, 7, 7, 128)         0         \n","_________________________________________________________________\n","conv2d_transpose (Conv2DTran (None, 14, 14, 128)       262272    \n","_________________________________________________________________\n","leaky_re_lu_3 (LeakyReLU)    (None, 14, 14, 128)       0         \n","_________________________________________________________________\n","conv2d_transpose_1 (Conv2DTr (None, 28, 28, 128)       262272    \n","_________________________________________________________________\n","leaky_re_lu_4 (LeakyReLU)    (None, 28, 28, 128)       0         \n","_________________________________________________________________\n","conv2d_2 (Conv2D)            (None, 28, 28, 1)         6273      \n","=================================================================\n","Total params: 1,339,905\n","Trainable params: 1,339,905\n","Non-trainable params: 0\n","_________________________________________________________________\n"],"name":"stdout"}]},{"cell_type":"markdown","metadata":{"id":"WGgHHBxHWbcq"},"source":["## Override `train_step`"]},{"cell_type":"code","metadata":{"id":"Spscbl7H
…
